…
To enable them in other operations, rebuild TensorFlow with the appropriate compiler flags.
2022-11-19 21:44:40.836508: I tensorflow/core/common_runtime/process_util.cc:146] Creating new thread pool with default inter op setting: 2. Tune using inter_op_parallelism_threads for best performance.
Model: "model"
__________________________________________________________________________________________________
 Layer (type)                   Output Shape         Param #     Connected to
==================================================================================================
 input_1 (InputLayer)           [(None, 25, 3)]      0           []

 lstm (LSTM)                    (None, 128)          67584       ['input_1[0][0]']

 repeat_vector (RepeatVector)   (None, 25, 128)      0           ['lstm[0][0]']

 lstm_1 (LSTM)                  (None, 25, 128)      131584      ['repeat_vector[0][0]']

 time_distributed_2 (TimeDistri  (None, 25, 1)       129         ['lstm_1[0][0]']
 buted)

 time_distributed (TimeDistribu  (None, 25, 128)     16512       ['lstm_1[0][0]']
 ted)

 time_distributed_1 (TimeDistri  (None, 25, 1)       129         ['lstm_1[0][0]']
 buted)

==================================================================================================
Total params: 215,938
Trainable params: 215,938
Non-trainable params: 0
__________________________________________________________________________________________________
Epoch 1/50
2022-11-19 21:44:52.580341: I tensorflow/core/kernels/data/shuffle_dataset_op.cc:390] Filling up shuffle buffer (this may take a while): 278175 of 654047
…
